data/dmc.cheetah.run/Dyn-Ba2-t-sar-curl-sac-euf_qf1-CFmax_5.7_min_mu_16-nrs5-rsfc0.8/Dyn-Ba2-t-sar-curl-sac-euf_qf1-CFmax_5.7_min_mu_16-nrs5-rsfc0.8_s0/model/extr_best_in_env_0.pt (torch, 124868 bytes, 8 tensors)

convs.0.weight f4 [32, 9, 3, 3]
0	0xbe789cbc	-0.2427854
1	0xbecb2e8e	-0.39683956
2	0xbee83684	-0.45354092
3	0x3e5a424c	0.21314353
4	0x3d84e442	0.06488849
5	0x3ea56c7f	0.32309338
6	0xbd45423f	-0.04815888
7	0x3d00edeb	0.031476896
8	0x3cd56f6b	0.026054105
9	0x3d433087	0.0476537
10	0x3e08f886	0.13376054
11	0xbd810cab	-0.06301244
12	0xbc8e07a6	-0.017337631
13	0xbdd06d81	-0.10177136
14	0x3e38659f	0.18007515
15	0xbd772d24	-0.060345784
16	0x3db5e0f3	0.08880796
17	0xbd9320a1	-0.07183958
18	0x3d9ab958	0.07554883
19	0x3dab0e90	0.08352387
20	0x3e48eabf	0.19620799
21	0x3da91985	0.082568206
22	0x3cd29854	0.025707401
23	0xbd9a2e37	-0.07528346
24	0xbda4b3cd	-0.08042107
25	0x3e30bf31	0.17260434
26	0xbd079c36	-0.03310796
27	0xbdc446c9	-0.09583814
28	0x3cda085a	0.02661531
29	0xbdcf91bd	-0.10135219
30	0xbd3cbbc8	-0.04607752
31	0xbd2bd729	-0.04195324
32	0xbe6640ad	-0.2248561
33	0xbdef0be9	-0.116721936
34	0xbda62337	-0.081121854
35	0xbd83a6ae	-0.06428276
36	0x3de502cf	0.11182176
37	0xbd1c6cfb	-0.03818987
38	0xbebc8b7d	-0.3682517
39	0xbda45c00	-0.0802536
40	0xbea5e473	-0.32400855
41	0x3d9b5953	0.075853966
42	0xbe90ab7c	-0.28255832
43	0x3ddb76f8	0.10716051
44	0xbdb8fd29	-0.090326615
45	0xbd8cfb53	-0.06883874
46	0xbd3b3eeb	-0.0457143
47	0x3e84f250	0.2596612
48	0x3e1aed6e	0.15129635
49	0x3ea293d1	0.317534
50	0x3d213d07	0.03936484
51	0xbd9c8c40	-0.07643938
52	0x3d3575fd	0.044301976
53	0x3dc09595	0.094035305
54	0xbe20a2be	-0.15687081
55	0xbebac880	-0.36481094
56	0xbc7a5e6f	-0.015281304
57	0x3e2af146	0.16693601
58	0xbe332229	-0.174935
59	0x3c84160e	0.016123798
60	0x3df1bbd3	0.11803403
61	0xbd9aa2c2	-0.07550575
62	0x3e49ea9d	0.19718404
63	0xbc6e6596	-0.014550587
64	0x3e9200ef	0.28516337
65	0xbcd4cf3d	-0.025977725
66	0x3ce18b14	0.027532138
67	0xbc1bc5ce	-0.0095076095
68	0xbdf103ce	-0.11768304
69	0xbd86df7e	-0.065855965
70	0x3c9297dc	0.017894678
71	0xbe538b16	-0.20658526
72	0xbd84b220	-0.06479287
73	0x3e153bff	0.14573668
74	0x3bd666bb	0.006543008
75	0xbe39b1e0	-0.1813426
76	0xbe0462ab	-0.12928264
77	0xbadf9ae1	-0.0017059707
78	0x3d71e846	0.059059404
79	0xbe6761f3	-0.22595958
80	0xbd7f2e84	-0.06230022
81	0xbd566b32	-0.052348323
82	0xbe74c168	-0.23901904
83	0x3e3db5ba	0.18526354
84	0x3d861b0e	0.06548129
85	0xbcf77ba8	-0.030210331
86	0xbe602e55	-0.21892674
87	0x3da31e83	0.07964804
88	0x3ddd9dcd	0.10821114
89	0x3e2986b3	0.1655529
90	0xbe1a7351	-0.15083052
91	0xbe269441	-0.16267492
92	0x3e3cd4a0	0.18440485
93	0xbd2c89b3	-0.042123508
94	0xbe8edc00	-0.27902222
95	0x3d9b7ef1	0.075925715
96	0xbe44f093	-0.19232397
97	0x3e3cdd1e	0.18443725
98	0x3ea4f8ea	0.32221156
99	0x3e161ccf	0.14659427
100	0x3dc92033	0.09820595
101	0xbdb98839	-0.090591855
102	0x3d831f79	0.06402487
103	0xbe721c7d	-0.2364368
104	0xbde88d89	-0.11355121
105	0xbe95ba93	-0.29243907
106	0xbdd7c571	-0.10535706
107	0x3e8d1ab8	0.27559447
108	0x3d90bbde	0.07067083
109	0xbdcd7604	-0.10032275
110	0x3e489b08	0.1959039
111	0x3d1d9e3e	0.03848099
112	0x3b520aaa	0.0032049813
113	0xbe04d455	-0.12971623
114	0x3e91237a	0.2834738
115	0x3e1b4b2d	0.15165396
116	0x3c08e4de	0.008355347
117	0x3e5a1b02	0.21299365
118	0x3e159215	0.14606507
119	0x3e44700d	0.19183369
120	0xbd199d82	-0.037503727
121	0x3e8155f8	0.252609
122	0xbd915e72	-0.07098092
123	0xbe459afa	-0.192974
124	0x3ca52536	0.020159345
125	0xbddfe905	-0.10933117
126	0xbda7f29d	-0.08200572
127	0xbdfa8900	-0.12233162
128	0xbcb3134b	-0.021859786
129	0x3d76cbb1	0.06025285
130	0x3d413d0c	0.04717736
131	0x3cdda62d	0.027056778
132	0xbe3e95dc	-0.18611854
133	0x3e378675	0.17922385
134	0x3ddeaf24	0.10873249
135	0x3d93b5d9	0.07212419
136	0xbe9b2f76	-0.30309647
137	0x3e3eae5d	0.18621202
138	0x3e36650e	0.17811987
139	0x3e228072	0.1586931
140	0xbd93f9cd	-0.0722538
141	0xbe04ebe4	-0.1298061
142	0x3e0135de	0.12618205
143	0xbc276546	-0.010217017
144	0xbe0ef061	-0.13958885
145	0xbd28c2e2	-0.04120148
146	0x3e1623d2	0.14662102
147	0xbc87fbd0	-0.016599566
148	0xbea65cd7	-0.32492706
149	0x3e46e1a9	0.1942202
150	0x3e03c9dc	0.12869972
151	0x3e85e46a	0.2615083
152	0xbe004a77	-0.12528406
153	0x3d2665fd	0.040624607
154	0x3e93fd54	0.28904212
155	0xbe1c7147	-0.15277587
156	0x3dc62052	0.09674133
157	0xbc9543f6	-0.018220883
158	0xbd994dbb	-0.07485529
159	0x3e11aa5b	0.14225142
160	0x3dc4d080	0.09610081
161	0xbda077e0	-0.07835364
162	0x3e207d86	0.15672883
163	0x3d35e850	0.044411004
164	0xbe268e27	-0.16265164
165	0x3dcfe2d1	0.10150684
166	0xbd6ec5c3	-0.05829407
167	0x3d964ab6	0.07338469
168	0x3dba3639	0.090923734
169	0xbdd2516f	-0.102694385
170	0x3da3347e	0.079689965
171	0xbd4740e2	-0.04864586
172	0xbee569d6	-0.4480731
173	0xbeedd020	-0.4644785
174	0x3dce0fd0	0.1006161
175	0xbe20d2e6	-0.15705451
176	0x3e013ba6	0.1262041
177	0xbdc1ab99	-0.09456558
178	0xbe75f22a	-0.2401816
179	0x3e16f1d2	0.14740685
180	0xbc82d131	-0.01596889
181	0xbeb54772	-0.3540607
182	0x3e0de983	0.13858609
183	0x3d964225	0.07336835
184	0xbb714228	-0.0036813114
185	0x3db80a53	0.08986344
186	0xbd5a42ee	-0.053286485
187	0x3da04178	0.07824987
188	0x3de2e535	0.11078874
189	0x3e38e0ab	0.18054454
190	0xbd996048	-0.07489067
191	0x3cde54d2	0.027140055
192	0xbd57e958	-0.05271277
193	0xbddac266	-0.1068161
194	0xbd5ac8a7	-0.053414013
195	0xbde0c270	-0.10974586
196	0x3d422b5e	0.04740464
197	0xbeae4cdd	-0.34043017
198	0x3e24f935	0.1611069
199	0xbd0d45b8	-0.034490317
200	0xbc816afb	-0.015798083
201	0xbceaa803	-0.028644567
202	0xbd4104be	-0.047123663
203	0xbe915bb9	-0.2839029
204	0x3ecd6d9d	0.4012269
205	0xbe822999	-0.25422361
206	0xbd82d865	-0.0638893
207	0x3e80be84	0.25145352
208	0x3e2af2f8	0.16694248
209	0x3e75caea	0.24003187
210	0xbb0212a7	-0.0019847543
211	0xbd7e7105	-0.062119503
212	0x3de9596b	0.11394008
213	0x3e38bd5a	0.18040982
214	0xbd046a19	-0.032327745
215	0x3cc3d527	0.02390535
216	0x3d569029	0.052383576
217	0xbcdf0eb6	-0.027228694
218	0x3d8586e6	0.065198705
219	0x3e004b56	0.12528738
220	0x3db4398d	0.088000394
221	0x3d7631ea	0.060106196
222	0xbe812d81	-0.2523003
223	0x3e03742e	0.12837288
224	0x3e9393ac	0.28823602
225	0xbe1f53fb	-0.1555938
226	0x3e2e88df	0.170444
227	0xbd0bffce	-0.0341795
228	0x3d0538a8	0.032524735
229	0xbdd1fe7d	-0.10253618
230	0x3c933a0b	0.017972013
231	0x3d055797	0.032554235
232	0xbe46ea1e	-0.19425246
233	0xbd87567d	-0.06608293
234	0xbd7422c5	-0.05960347
235	0x3d266222	0.04062093
236	0xbce3488c	-0.027744554
237	0x3e8e9d93	0.27854595
238	0xbd7880f9	-0.060669873
239	0xbb29a534	-0.0025885822
240	0xbe4d608c	-0.20056361
241	0xb8d4cd1e	-0.00010147154
242	0x3d78e526	0.060765408
243	0x3dc9e501	0.09858132
244	0xbc5180c3	-0.012787047
245	0xbd9433bf	-0.07236432
246	0xbe3cbf40	-0.18432331
247	0x3e5d4d08	0.21611416
248	0xbd14f556	-0.036366783
249	0x3e9f087b	0.31061158
250	0x3e9240c4	0.28565037
251	0x3d1063e3	0.03525151
252	0x3e863d4c	0.2621864
253	0x3e207b83	0.15672116
254	0x3df63b45	0.120230235
255	0xbde5ebac	-0.112265915

convs.0.bias f4 [32]
0	0x00000000	0.0
1	0x00000000	0.0
2	0x00000000	0.0
3	0x00000000	0.0
4	0x00000000	0.0
5	0x00000000	0.0
6	0x00000000	0.0
7	0x00000000	0.0
8	0x00000000	0.0
9	0x00000000	0.0
10	0x00000000	0.0
11	0x00000000	0.0
12	0x00000000	0.0
13	0x00000000	0.0
14	0x00000000	0.0
15	0x00000000	0.0
16	0x00000000	0.0
17	0x00000000	0.0
18	0x00000000	0.0
19	0x00000000	0.0
20	0x00000000	0.0
21	0x00000000	0.0
22	0x00000000	0.0
23	0x00000000	0.0
24	0x00000000	0.0
25	0x00000000	0.0
26	0x00000000	0.0
27	0x00000000	0.0
28	0x00000000	0.0
29	0x00000000	0.0
30	0x00000000	0.0
31	0x00000000	0.0

convs.1.weight f4 [32, 32, 3, 3]
0	0x3d006dd0	0.031354725
1	0xbdb8cf18	-0.09023875
2	0xbe429260	-0.1900115
3	0xbbf4312c	-0.007452151
4	0x3d3ac93f	0.04560208
5	0xbdc062e4	-0.09393862
6	0xbd0cda06	-0.03438761
7	0xbe73b2ca	-0.23798671
8	0x3d2ab688	0.04167798
9	0x3e2b4890	0.16726899
10	0x3cb54fc2	0.022132758
11	0xbdbddda3	-0.092707895
12	0x3d9ef584	0.07761672
13	0x3dd272ea	0.10275824
14	0xbb419623	-0.0029538951
15	0x3cc74d9c	0.024329
16	0x3e154c4b	0.14579885
17	0xbdef965f	-0.11698603
18	0x3b9ffae4	0.0048822034
19	0xbd762aa3	-0.060099255
20	0xbe32ed86	-0.1747342
21	0x3da884e5	0.082284726
22	0x3d21eab8	0.039530486
23	0x3d68bf34	0.05682297
24	0xbc9a93fd	-0.018869394
25	0x3ddf451f	0.10901856
26	0x3e105215	0.14093812
27	0x3d038442	0.032108553
28	0xbe2fe2c8	-0.17176354
29	0xbd6d5154	-0.05793889
30	0xbdb5cb4a	-0.08876665
31	0xbe353a66	-0.17698058
32	0xbd44e1da	-0.04806695
33	0x3e0b01c5	0.13574894
34	0xbd755c47	-0.059902456
35	0x3cdf2f58	0.027244255
36	0xbc2ee27b	-0.010674114
37	0xbde2edc3	-0.11080506
38	0x3d71a0b2	0.05899114
39	0x3e32dd18	0.17467153
40	0xbd0a4317	-0.033755388
41	0x3cd93946	0.026516568
42	0x3d658ff1	0.056045476
43	0xbd92ccc3	-0.071679614
44	0x3df2726b	0.1183823
45	0x3cc83d83	0.024443394
46	0xbe2143ff	-0.15748595
47	0xbb859bd8	-0.004077416
48	0xbd8b5411	-0.06803144
49	0x3d634b89	0.055491958
50	0x3d9c7a61	0.076405294
51	0x3d715e62	0.0589279
52	0xbdbfbac3	-0.09361794
53	0xbdc49216	-0.09598176
54	0x3d39cb67	0.045359995
55	0x3de226b0	0.11042535
56	0x3d4f28ee	0.050576143
57	0x3dc7463c	0.09730193
58	0xbd994b17	-0.074850254
59	0xbe12e9a9	-0.14346947
60	0x3dc7ec05	0.09761814
61	0xbe16430c	-0.14674014
62	0x3d3ef842	0.046623476
63	0xbe0c280c	-0.13687152
64	0xbd2df481	-0.042469505
65	0xbd0bf68a	-0.034170665
66	0x3d999b26	0.07500295
67	0xbd53a25f	-0.05166852
68	0xbdfeb1aa	-0.124362305
69	0x3b5dbb1a	0.0033833445
70	0x3b8f7830	0.004378341
71	0x3e0523b6	0.13001904
72	0xbda42e4d	-0.08016644
73	0x3c4daa6d	0.01255284
74	0xbe0d9378	-0.13825786
75	0xbd38122e	-0.044939213
76	0x3c08886a	0.008333305
77	0xbd877d1d	-0.0661566
78	0xbdd5c167	-0.10437279
79	0xbd99c50a	-0.07508285
80	0xbc3e6702	-0.011621239
81	0xbe0d82e1	-0.13819458
82	0xbdc02600	-0.09382248
83	0xbd8137b3	-0.06309452
84	0x3da47397	0.080298595
85	0x3d614031	0.05499286
86	0xbd1f9686	-0.03896191
87	0x3af85baa	0.0018948216
88	0xbcc17f63	-0.023620313
89	0x3d9fa475	0.077950396
90	0xbd0be00e	-0.034149222
91	0xbd45f004	-0.0483246
92	0x3a7bf653	0.00096115953
93	0xbdb901bc	-0.09033534
94	0x3db27fbf	0.08715772
95	0x3c08ff96	0.008361718
96	0x3d01b66a	0.031668104
97	0x3ca31474	0.019907214
98	0x3e229d83	0.15880398
99	0xbdae7959	-0.08519239
100	0xbd45044c	-0.0480998
101	0xbdee9e09	-0.116512366
102	0xbc4a98bb	-0.012365515
103	0xbdfb0324	-0.122564584
104	0xbda2da87	-0.07951837
105	0x3d7fd558	0.06245932
106	0x3ddb2ad0	0.10701525
107	0xbc6b126a	-0.014347652
108	0x3e20bcca	0.15697017
109	0x3dcf6d60	0.101282835
110	0xbcf7f6c7	-0.03026904
111	0x3c8d40d5	0.017242828
112	0xbcfe79bc	-0.031063907
113	0xbd75b065	-0.059982676
114	0x3dc750c8	0.09732205
115	0xbe2faf27	-0.17156659
116	0xbdbce7bf	-0.092238896
117	0x3dba0d61	0.09084583
118	0xbd87d112	-0.06631674
119	0x3d9b8b5b	0.07594939
120	0x3c3df727	0.01159457
121	0x3dc42404	0.09577182
122	0x3c4c5cf1	0.012473331
123	0xbdb76786	-0.089552924
124	0x3d659419	0.05604944
125	0xbd218a57	-0.03943857
126	0xbcb784a5	-0.022402117
127	0xbd84eac0	-0.064900875
128	0x3de1dba8	0.11028224
129	0xbd79b9e6	-0.060968302
130	0xbc623482	-0.013806464
131	0x3dd23e8f	0.10265838
132	0xbde7857e	-0.113047585
133	0xbe1f8ad7	-0.15580307
134	0xbe5a2cab	-0.21306102
135	0xbc9c9da4	-0.019118138
136	0xbdb24722	-0.08704974
137	0xbcb04a62	-0.021519843
138	0xbdcee9d4	-0.10103193
139	0xbd97c58e	-0.074107274
140	0xbe017951	-0.12643935
141	0xbd6e722f	-0.058214363
142	0xbdb9a13d	-0.09063957
143	0x3d49a950	0.049233735
144	0x3db24f3d	0.0870652
145	0x3e0ee4d8	0.13954484
146	0xbb2882a2	-0.002571263
147	0xbdba9e74	-0.09112254
148	0xbd8381ab	-0.064212166
149	0x3cbbf208	0.022942558
150	0x3d42f81b	0.047599893
151	0xbd740352	-0.05957348
152	0xbc3009be	-0.01074451
153	0x3d8f0dd1	0.06985057
154	0xbd5267bf	-0.05136847
155	0x3dab6cf3	0.0837039
156	0x3db0e056	0.08636539
157	0x3d440fa3	0.047866475
158	0x3db7eb8e	0.08980475
159	0xbd3709d0	-0.044687092
160	0xbcf7ac67	-0.030233575
161	0xbd602f92	-0.054732867
162	0x3db4afe2	0.088226095
163	0xbdc1c16b	-0.0946072
164	0x3e022920	0.12711
165	0xbd29a8b2	-0.041420646
166	0x3cf0db10	0.029401332
167	0x3d337945	0.043816824
168	0x3d9c0eea	0.07620032
169	0xbd271087	-0.040787246
170	0xbd98eabf	-0.07466649
171	0x3d6546af	0.055975612
172	0x3e41d298	0.18927991
173	0x3d72dfca	0.059295453
174	0x3c94b099	0.018150615
175	0xbdceed53	-0.1010386
176	0x3cc06913	0.023487603
177	0x3cd1ea23	0.02562434
178	0xbdd2e8e6	-0.10298328
179	0xbd264b19	-0.040598962
180	0x3e1fd3c4	0.15608126
181	0x3d305e87	0.0430589
182	0x3c4013a7	0.0117234355
183	0x3d5c958c	0.053853557
184	0xbba70e1b	-0.005098117
185	0xbd70d791	-0.05879933
186	0xbcf32791	-0.029681953
187	0xbd8f58b0	-0.06999338
188	0x392348d6	0.00015572025
189	0xbcec5da9	-0.028853254
190	0x3da2bc2a	0.07946046
191	0x3b91370e	0.004431612
192	0xbdf413ba	-0.11917825
193	0xbdb770e3	-0.08957078
194	0x3cdd8328	0.02704008
195	0xbd51d7e1	-0.05123127
196	0xbdba31ef	-0.09091555
197	0x3d9ff0c4	0.07809594
198	0xbcf6461c	-0.030062728
199	0x3d68de43	0.05685259
200	0xbc8f7e79	-0.017516362
201	0xbd779be2	-0.060451396
202	0xbe113a02	-0.14182284
203	0xbe19814d	-0.1499073
204	0x3b8c9d8e	0.004291243
205	0x3dd1332c	0.102148384
206	0x3da7bdc7	0.08190494
207	0x3c23b02e	0.009990735
208	0xbdee9bb6	-0.11650793
209	0xbc932ad8	-0.017964765
210	0xbbdd275e	-0.0067490777
211	0x3dcc9dd8	0.09991044
212	0x3e03c68a	0.12868705
213	0xbb93d632	-0.004511618
214	0xbd8f421f	-0.069950335
215	0xbdb71831	-0.08940161
216	0xbd0618e7	-0.032738592
217	0xbcdd17c1	-0.026988866
218	0x3dcf8dc5	0.10134462
219	0x3e224591	0.1584685
220	0x3da3acde	0.07991956
221	0x3d40f868	0.0471119
222	0x3d9d62a7	0.07684832
223	0xbd17c233	-0.037050437
224	0xbcef8830	-0.029239744
225	0xbcfd1188	-0.030892149
226	0xbc086c40	-0.00832659
227	0x3cbaccdb	0.02280276
228	0x3de9d9e5	0.11418513
229	0xbdb53826	-0.088486
230	0xbdb879d4	-0.09007612
231	0x3d6f8255	0.058473904
232	0xbe13ce8c	-0.1443426
233	0x3da72f96	0.08163373
234	0xbc7f86bd	-0.015596089
235	0x3d40660c	0.04697232
236	0xbde7a1b1	-0.11310137
237	0x3d1737ec	0.036918566
238	0xbd0aa30e	-0.033846907
239	0x3de5c9f1	0.11220158
240	0x3dd8b2fc	0.105810136
241	0x3d2ae40d	0.041721392
242	0xbe177233	-0.14789657
243	0xbd2d700d	-0.042343188
244	0xbd2e2a60	-0.04252088
245	0x3cd8ad4e	0.026449826
246	0x3e06411f	0.13110779
247	0x3d5af37e	0.05345487
248	0xbe12bc43	-0.14329629
249	0xbb9d8068	-0.004806567
250	0xbd869ce1	-0.06572891
251	0xbd82f1e4	-0.06393793
252	0xbd88a17e	-0.06671427
253	0xbdab49df	-0.08363699
254	0x3c503fe7	0.012710548
255	0x3d89b33e	0.06723641

convs.1.bias f4 [32]
0	0x00000000	0.0
1	0x00000000	0.0
2	0x00000000	0.0
3	0x00000000	0.0
4	0x00000000	0.0
5	0x00000000	0.0
6	0x00000000	0.0
7	0x00000000	0.0
8	0x00000000	0.0
9	0x00000000	0.0
10	0x00000000	0.0
11	0x00000000	0.0
12	0x00000000	0.0
13	0x00000000	0.0
14	0x00000000	0.0
15	0x00000000	0.0
16	0x00000000	0.0
17	0x00000000	0.0
18	0x00000000	0.0
19	0x00000000	0.0
20	0x00000000	0.0
21	0x00000000	0.0
22	0x00000000	0.0
23	0x00000000	0.0
24	0x00000000	0.0
25	0x00000000	0.0
26	0x00000000	0.0
27	0x00000000	0.0
28	0x00000000	0.0
29	0x00000000	0.0
30	0x00000000	0.0
31	0x00000000	0.0

convs.2.weight f4 [32, 32, 3, 3]
0	0xba966fdd	-0.001147743
1	0x3cd6d105	0.026222715
2	0x3b506ef6	0.003180442
3	0x3ca681be	0.020325538
4	0xbcbbb3e5	-0.022912929
5	0xbce69d27	-0.028151108
6	0x3d8b95e4	0.06815699
7	0x3d5df8e0	0.054192424
8	0x3e0a4a81	0.13504983
9	0xbe50a060	-0.20373678
10	0xbca2b14a	-0.019859929
11	0x3d9d1d2e	0.07671581
12	0x3e3c3b56	0.1838201
13	0x3d81557c	0.06315133
14	0xbb519f6d	-0.0031985894
15	0x3e1a90a9	0.15094246
16	0xbd33315a	-0.043748237
17	0xbca9cad0	-0.020726591
18	0xbd8b9517	-0.06815546
19	0xbcc7f3b1	-0.024408193
20	0xbd928abb	-0.07155367
21	0xbe0a752a	-0.13521257
22	0xbd4ae839	-0.04953787
23	0x3b18e312	0.0023328704
24	0x3cd272aa	0.025689442
25	0x3cd4b3e6	0.025964689
26	0x3df71b73	0.120657824
27	0x3dab0f0b	0.083524786
28	0xbdc9c50e	-0.09852038
29	0xbcc55caa	-0.024092037
30	0x3e1dbd0b	0.15404145
31	0x3d689bac	0.056789085
32	0xbd7a6bf1	-0.061138097
33	0x3db7d2c0	0.08975744
34	0x3d93569d	0.071942545
35	0xbe10bc46	-0.1413432
36	0x3cf643af	0.03006157
37	0xbd6b23cb	-0.05740718
38	0xbda5a938	-0.080889165
39	0x3db68496	0.089120075
40	0x3cab37f9	0.020900713
41	0xbabaf34c	-0.0014263182
42	0x3d12cee3	0.035841834
43	0xbbe6c53b	-0.0070425547
44	0x39ddb724	0.00042288855
45	0x3bf2eed2	0.0074137235
46	0x3cb1f6bf	0.021724103
47	0x3d441dd8	0.047880024
48	0x3d85b989	0.06529529
49	0xbcacbc0b	-0.02108576
50	0xbd6cae29	-0.05778328
51	0xbd6ab6ff	-0.057303425
52	0x3c2aa797	0.010415933
53	0x3d158ba4	0.036510125
54	0x3d27e59a	0.04099045
55	0x3d8765ab	0.066111885
56	0xbe0ba587	-0.13637362
57	0xbd61ee5b	-0.055158954
58	0x3c9f6dee	0.019461598
59	0xbd00799c	-0.031365976
60	0xbd2436dc	-0.04009138
61	0xbd7fa181	-0.06240988
62	0xbc003452	-0.007824974
63	0x3d9c7712	0.07639898
64	0xbd09c677	-0.033636536
65	0xbe1ef5a9	-0.155234
66	0x3bb0bf2b	0.0053938827
67	0xbdfd957c	-0.123820275
68	0x3c41738b	0.011807333
69	0xbca20c02	-0.019781116
70	0x3d21cebb	0.039503794
71	0xbe2ac62a	-0.16677156
72	0x3d11c6c2	0.03558994
73	0xbde9e02f	-0.11419713
74	0xbdbb8145	-0.091555156
75	0xbdc2553f	-0.09488916
76	0x3cd32734	0.02577553
77	0x3e143eda	0.14477101
78	0xbcd1885e	-0.02557772
79	0x3d3a5e4e	0.045500092
80	0xbd931870	-0.071823955
81	0x3cfb93eb	0.030710181
82	0x3c6f215c	0.014595356
83	0xbd980793	-0.0742332
84	0x3e400a51	0.18753935
85	0xbd38b891	-0.04509789
86	0x3dfecdb6	0.1244158
87	0xbdd6ed58	-0.104944885
88	0xbd33fa42	-0.043939836
89	0x3e1cc7e8	0.15310633
90	0xb9ecac10	-0.00045141624
91	0x3a890a56	0.0010455351
92	0x3dc02124	0.09381321
93	0x3d9c5a19	0.07634372
94	0x3db18388	0.08667666
95	0x3d354795	0.04425772
96	0x3e059eaa	0.13048807
97	0x3d395b02	0.045252807
98	0x3dde24fd	0.10846899
99	0xbd5b9414	-0.053608015
100	0x3db8fec1	0.090329655
101	0x3d928237	0.07153743
102	0xbe053ae9	-0.13010754
103	0x3dbc82c7	0.09204631
104	0xbdad2ff9	-0.08456416
105	0x3d33cd91	0.043897215
106	0xbc21398a	-0.009840379
107	0x39a00333	0.00030519962
108	0xbdebdaff	-0.115163796
109	0xbdaef269	-0.0854233
110	0xbe0236eb	-0.12716262
111	0xbe585df7	-0.21129595
112	0x3e349d51	0.17638136
113	0xbde8e845	-0.11372427
114	0x3d7a687b	0.061134797
115	0x3e05ab33	0.13053589
116	0x3ab8fcfd	0.0014113482
117	0x3d659ac1	0.056055788
118	0x3d4992cc	0.049212262
119	0xbd228eef	-0.039687093
120	0xbd81670a	-0.06318481
121	0x3db7ce00	0.08974838
122	0x3e0c9894	0.13730079
123	0x3db7514c	0.08951053
124	0x3e35298b	0.17691629
125	0x3ce2690a	0.027637977
126	0xbd764c7b	-0.06013153
127	0xbd80497c	-0.06264016
128	0xbddada76	-0.10686199
129	0x3dc169c9	0.09444005
130	0x3daceebe	0.08443974
131	0x3d6563d6	0.056003414
132	0x3cf92656	0.030413788
133	0xbd571ee5	-0.052519698
134	0x3da72da9	0.08163006
135	0x3d9d74fa	0.07688327
136	0xbde11e54	-0.10992113
137	0x3d30c001	0.04315186
138	0x3d851fc7	0.06500202
139	0x3db8dcc3	0.09026482
140	0xbda8155e	-0.082072005
141	0xbdae6e19	-0.08517093
142	0x3dc7fa75	0.09764568
143	0xbd7e8d0e	-0.06214624
144	0x3d37c90a	0.04486946
145	0xbdfa803b	-0.12231489
146	0xbc8ac6d5	-0.016940514
147	0xbd8f0fea	-0.06985457
148	0xbc9a9fcb	-0.018875023
149	0x3d91cde7	0.07119351
150	0x3ce64f63	0.028114026
151	0x3d28731c	0.0411254
152	0xbdacb5fc	-0.08433148
153	0x3d9895c3	0.0745044
154	0x3d004f30	0.03132552
155	0x3e08b28a	0.13349357
156	0x3dac1ad6	0.08403556
157	0xbd7ed305	-0.062212963
158	0xbd55a993	-0.05216367
159	0x3d8a0b73	0.06740465
160	0x3db78ad3	0.089620255
161	0xbddc4386	-0.107550666
162	0x3cda4fcd	0.02664938
163	0xbdeee04a	-0.116638735
164	0xbde4f6c7	-0.111798815
165	0xbdb9eff7	-0.09078973
166	0xbdfbd6f1	-0.12296856
167	0xbe1dc872	-0.15408495
168	0x3cfaecf4	0.030630566
169	0xbd999dda	-0.07500811
170	0xbc78b794	-0.015180487
171	0x3e2a3fee	0.1662595
172	0x3db9bd50	0.090693116
173	0x3d10ec9a	0.03538189
174	0x3db4b7a9	0.08824093
175	0x38c5f88f	9.43999e-05
176	0x3d3dcf84	0.04634048
177	0x3d192142	0.037385233
178	0x3ddfed2a	0.10933907
179	0xbbbe887f	-0.0058146114
180	0x3d3e1dea	0.046415247
181	0xbc91dafe	-0.017804619
182	0xbc45b46d	-0.012066943
183	0x3db19c66	0.08672409
184	0xbdab7f66	-0.08373909
185	0xbc9e0fe0	-0.01929468
186	0x3db9ae33	0.09066429
187	0x3d735784	0.059409633
188	0x3cfd77cf	0.030940918
189	0xbe038780	-0.12844658
190	0xbc8d9f16	-0.017287772
191	0xbd25a0a5	-0.040436406
192	0x3d84b532	0.06479873
193	0x3d0f81cf	0.035035904
194	0x3d25c3d5	0.040469963
195	0x3db04505	0.086069144
196	0x3e13be0e	0.14427969
197	0x3de62256	0.11237018
198	0x3dbb0459	0.091316886
199	0xbdac679c	-0.084181994
200	0x3d6b79ab	0.05748908
201	0x3d7c1782	0.061545856
202	0xbe2fbe6b	-0.17162482
203	0xba9a17c8	-0.0011756355
204	0xbe6f4daa	-0.2336947
205	0x3dcef5b6	0.101054594
206	0xbc19b75f	-0.009382098
207	0x3d985884	0.07438758
208	0x3d20e14f	0.03927737
209	0xbce5a082	-0.028030638
210	0xbc83a138	-0.016068086
211	0x3d6ac5d2	0.057317562
212	0xbcf38d00	-0.02973032
213	0x3bf1c31b	0.0073779947
214	0x3ba11766	0.0049161194
215	0xbd5dde7f	-0.054167267
216	0xbe47da2f	-0.19516824
217	0xbdcbde24	-0.09954479
218	0xbdf52343	-0.11969616
219	0xbd9bf91a	-0.07615872
220	0xbd8c8868	-0.06861955
221	0xbcf9af74	-0.03047917
222	0xbc9b607e	-0.01896691
223	0xbd68b069	-0.056808863
224	0x3dfe988e	0.12431441
225	0xbd33dfdb	-0.043914657
226	0xbd75020d	-0.05981641
227	0x3d442e93	0.04789598
228	0xbdea5a2c	-0.1144298
229	0xbd241a95	-0.040064413
230	0x3dc1cedd	0.09463284
231	0xbd470e3b	-0.048597556
232	0x3d687fa7	0.056762364
233	0xbcfea454	-0.031084217
234	0xbdd4d413	-0.103920124
235	0x3cee9069	0.029121595
236	0x3cf58b2a	0.029973585
237	0xbdfd71c2	-0.12375213
238	0x3bfe89d5	0.0077678957
239	0x3d113ea7	0.03546014
240	0xbd97ee45	-0.07418493
241	0xbb71d55a	-0.003690085
242	0xbd1222fa	-0.035677887
243	0xbde83d7e	-0.11339854
244	0x3d0b1262	0.033953078
245	0xbd9dd0e3	-0.077058576
246	0xbdb89ed8	-0.09014672
247	0xbd0c2d2f	-0.034222778
248	0xbdbaab61	-0.09114719
249	0x3b139f55	0.002252539
250	0x3e1f5119	0.1555828
251	0x3d70c904	0.058785453
252	0x3c1951b4	0.009357858
253	0x3cb6c625	0.02231128
254	0x3d257a70	0.04039997
255	0xbdbb9de0	-0.09160972

convs.2.bias f4 [32]
0	0x00000000	0.0
1	0x00000000	0.0
2	0x00000000	0.0
3	0x00000000	0.0
4	0x00000000	0.0
5	0x00000000	0.0
6	0x00000000	0.0
7	0x00000000	0.0
8	0x00000000	0.0
9	0x00000000	0.0
10	0x00000000	0.0
11	0x00000000	0.0
12	0x00000000	0.0
13	0x00000000	0.0
14	0x00000000	0.0
15	0x00000000	0.0
16	0x00000000	0.0
17	0x00000000	0.0
18	0x00000000	0.0
19	0x00000000	0.0
20	0x00000000	0.0
21	0x00000000	0.0
22	0x00000000	0.0
23	0x00000000	0.0
24	0x00000000	0.0
25	0x00000000	0.0
26	0x00000000	0.0
27	0x00000000	0.0
28	0x00000000	0.0
29	0x00000000	0.0
30	0x00000000	0.0
31	0x00000000	0.0

convs.3.weight f4 [32, 32, 3, 3]
0	0xbcc860b5	-0.024460176
1	0xbdb2a5d4	-0.087230355
2	0xbcde1c44	-0.027113087
3	0xbe19e6f7	-0.15029512
4	0xbcecf69e	-0.02892619
5	0x3d0cffee	0.03442376
6	0x3cbbef90	0.02294138
7	0x3d814386	0.06311707
8	0xbd4bf265	-0.049791712
9	0xbdc52a18	-0.09627169
10	0x3e0cfac2	0.13767532
11	0xbe010382	-0.12598994
12	0xbd02c57d	-0.03192662
13	0xbd7314c4	-0.059345976
14	0x3d8c713c	0.06857535
15	0xbe07e7d8	-0.13272035
16	0x3d00b722	0.03142465
17	0x3bacae51	0.0052698036
18	0x3e05b374	0.13056737
19	0xbd993d0d	-0.07482348
20	0x3d1dc668	0.038519293
21	0xbd321dc0	-0.043485403
22	0x3d32427d	0.04352044
23	0x3d939ba0	0.072074175
24	0xbc3770b3	-0.011196303
25	0xbe2f99c8	-0.17148507
26	0xbd9f4de9	-0.07778532
27	0x3d056a8c	0.032572314
28	0x3d9b3365	0.07578162
29	0xbd4d762d	-0.05016153
30	0xbd8ed431	-0.06974066
31	0x3dd70d3d	0.10500572
32	0xbcba557c	-0.02274584
33	0x3cff5c12	0.031171832
34	0xbc445a71	-0.011984454
35	0xbd88a2c5	-0.06671671
36	0xbcc69e3c	-0.024245374
37	0x3e03daaa	0.12876382
38	0xbd8a87f3	-0.067642115
39	0x3e1ce1c8	0.15320504
40	0x3e0a3b39	0.13499154
41	0xbc9575c1	-0.018244626
42	0xbdcc6125	-0.09979466
43	0x3c3f87a7	0.011690057
44	0xbdd71f85	-0.10504059
45	0xbd908058	-0.0705573
46	0xbd96b750	-0.07359183
47	0xbd567abb	-0.05236314
48	0x3d059f8d	0.032622863
49	0x3c806e31	0.015677543
50	0x3dd845bb	0.10560175
51	0xbcb01b56	-0.02149741
52	0xbc80e136	-0.015732389
53	0xbc9818b2	-0.018566463
54	0x3c978365	0.018495271
55	0x3cc0ed5d	0.023550684
56	0xbd7bd31f	-0.061480638
57	0xbe05b9fc	-0.13059229
58	0xbd7e13f6	-0.062030755
59	0x3b8ef7b0	0.0043630227
60	0x3c47ece1	0.012202472
61	0x3ce2b69e	0.02767497
62	0xbd8c6e8c	-0.06857023
63	0xbb9a2a0c	-0.0047047194
64	0xbc6afa2d	-0.014341873
65	0x3e04c249	0.12964739
66	0xbdba1acf	-0.090871446
67	0xbdb28695	-0.08717076
68	0x3d3b28c7	0.045693185
69	0x3da57bed	0.080802776
70	0xbd233cd7	-0.039852943
71	0x3da4c77e	0.080458626
72	0xbd3ac879	-0.045601342
73	0xbc669e0d	-0.014075768
74	0xbe01ebb4	-0.1268757
75	0x3d92c8cc	0.07167205
76	0xbd87a5ac	-0.06623396
77	0x3dcbbbe7	0.09947949
78	0xba00e121	-0.00049163593
79	0xbe1126ee	-0.14175007
80	0xbc161406	-0.009160047
81	0x3d91d399	0.07120437
82	0x3d69ecef	0.057110723
83	0xbcdecd6b	-0.02719756
84	0x3d241cd1	0.040066544
85	0x3d20cc92	0.039257593
86	0x3d81848b	0.06324109
87	0xbd8241fd	-0.063602425
88	0x3cfa8142	0.030579213
89	0x3d691207	0.056901958
90	0xbe38bb6f	-0.1804025
91	0x3cf6a08d	0.030105853
92	0x3d0d51c4	0.034501806
93	0x3da9bd9c	0.08288118
94	0x3a740e54	0.00093099964
95	0x3db389f4	0.08766547
96	0x3e030e41	0.12798406
97	0x3bf4603e	0.007457762
98	0x3d497d24	0.04919161
99	0x3cf76049	0.03019728
100	0xbd64c932	-0.055855937
101	0xbb439ba5	-0.002984741
102	0xbc9fb29f	-0.019494353
103	0xbdeb5eab	-0.11492666
104	0xbda02d15	-0.07821099
105	0xbe24910e	-0.16070959
106	0xbc98cf90	-0.018653661
107	0xbd3463e6	-0.044040583
108	0x3b8eff4d	0.0043639303
109	0xbd9f2005	-0.07769779
110	0x3e12c433	0.14332657
111	0x3d52e975	0.051492173
112	0x3e24f1f3	0.16107921
113	0x3c2754bd	0.010213074
114	0x3d918727	0.071058564
115	0x3cfab8d8	0.030605718
116	0xbd29e4ad	-0.041477848
117	0x3da96078	0.08270353
118	0xbe24079d	-0.16018529
119	0x3ceb14cf	0.028696446
120	0x3d5bee77	0.053694215
121	0x3d095210	0.033525527
122	0x3d19fc8e	0.03759437
123	0x3d827a6d	0.06371007
124	0xbe0f277b	-0.13979904
125	0xbd693ae3	-0.056940924
126	0x3d5a8c10	0.05335623
127	0x3e243269	0.16034855
128	0x3d9cb00c	0.07650766
129	0x3d4d0392	0.050052233
130	0x3e640577	0.2226771
131	0x3d82d3ce	0.06388055
132	0xbe283111	-0.16424967
133	0xbdccbd6b	-0.09997066
134	0x3d63a1e1	0.0555743
135	0xbe6b9984	-0.2300778
136	0xbe517b53	-0.204572
137	0x3d34dffa	0.044158913
138	0xbda9e194	-0.08294979
139	0xbcf26629	-0.02958973
140	0xbcf046ea	-0.02933069
141	0x3d8a0c2f	0.06740605
142	0xbd3c5faa	-0.04598967
143	0x3d3ab3ab	0.0455815
144	0xbc86dd4e	-0.016462948
145	0x3d95221f	0.07281899
146	0x3d3b1db5	0.045682628
147	0xbd2f97a4	-0.042869225
148	0xbc862133	-0.016373252
149	0xbd5865e0	-0.05283153
150	0xbcd07d8f	-0.025450496
151	0xbdc3eb7f	-0.09566402
152	0xbccb2469	-0.024797635
153	0x3c0ff4fb	0.008786435
154	0x3cacbc36	0.02108584
155	0x3d4c1553	0.049825024
156	0xbad76aee	-0.0016435066
157	0x3b760c44	0.0037543932
158	0x3be70b73	0.0070509254
159	0x3db5f624	0.08884838
160	0x3d80cbac	0.06288847
161	0x3d417479	0.047230218
162	0x3d779ec3	0.06045414
163	0xbcb0a0b0	-0.021560997
164	0xbd128b47	-0.035777356
165	0xbd13f8e4	-0.036126032
166	0xbdb9faf5	-0.090810694
167	0xbdb7e906	-0.089799926
168	0x3d877764	0.06614569
169	0xbdc3fe8c	-0.09570035
170	0xbd570347	-0.05249336
171	0x3e03f56f	0.12886594
172	0xbd709151	-0.058732335
173	0xbe2b44ee	-0.16725513
174	0xbda5fc18	-0.08104724
175	0xbdc6dbc4	-0.09709886
176	0xbcf20d8a	-0.029547472
177	0x3d81e914	0.06343284
178	0xbd831602	-0.06400682
179	0xbca5bcae	-0.020231571
180	0x3d83cb1a	0.06435223
181	0x39c32699	0.00037222056
182	0xbd9e2268	-0.07721406
183	0x3e21f954	0.15817767
184	0xbd4ac8a6	-0.04950776
185	0x3ceb8fc1	0.02875507
186	0xbe35bd2e	-0.17747948
187	0xbe216239	-0.15760125
188	0x3d84dde2	0.06487633
189	0x3c36d05c	0.011158075
190	0xbdb6b41d	-0.08921073
191	0x3db8eb53	0.090292595
192	0x3d739792	0.05947072
193	0xbd9803ed	-0.07422624
194	0x3bda74a3	0.006666736
195	0x3ca5de30	0.020247549
196	0x3e045eba	0.1292676
197	0x3dc69041	0.09695483
198	0xbc90a9b2	-0.017659042
199	0xbd07121f	-0.032976266
200	0x3c29b55a	0.010358179
201	0xbe1280d5	-0.14306958
202	0xbd57bcb9	-0.052670214
203	0xbd879ea9	-0.06622059
204	0x3d17817e	0.036988728
205	0xbde5b75e	-0.11216615
206	0x3e487471	0.19575669
207	0xbbaaf59c	-0.005217267
208	0x3ca762d5	0.020432869
209	0xbd41b4f0	-0.047291696
210	0x3dfcf8fb	0.12352177
211	0x3d66b3dc	0.05632387
212	0xbd62777b	-0.055289727
213	0x3cd5a250	0.026078373
214	0xbdabd7de	-0.08390783
215	0xbca3e38d	-0.020005966
216	0x3c5bdba8	0.013419069
217	0x3dc71c98	0.09722251
218	0x3d1a6cca	0.037701406
219	0xbd552665	-0.05203857
220	0x3da0c54d	0.07850132
221	0xbd79919e	-0.060929887
222	0xbd81e17c	-0.06341836
223	0xbd227287	-0.039660003
224	0x3d078556	0.033086143
225	0xbd9fe1b1	-0.07806719
226	0x3dbc981e	0.092087016
227	0xbcd9fded	-0.026610339
228	0x3dd65d6a	0.10467036
229	0xbe0d56f9	-0.13802709
230	0xbba59115	-0.0050526955
231	0x3d84c764	0.06483343
232	0xbdc2b2e0	-0.09506774
233	0xbd02f9a4	-0.031976357
234	0x3e0c31a8	0.13690817
235	0x3e7a07fd	0.2441711
236	0x3be0cc7b	0.0068603135
237	0x3ca267be	0.019824859
238	0xbdbf4652	-0.093395844
239	0x3da925f8	0.08259195
240	0xbc7789d6	-0.015108546
241	0xbc89b2d5	-0.016808907
242	0xbd35f1c2	-0.04442001
243	0xbd88d2e2	-0.06680848
244	0x3e16a474	0.14711171
245	0x3dfc6f79	0.12325949
246	0xbe5366e0	-0.20644712
247	0x3d5439e7	0.051813032
248	0xbc99d711	-0.01877931
249	0xbb58963e	-0.0033048536
250	0x3ce8dd06	0.028425705
251	0xbddcdfa3	-0.10784843
252	0xbdea732e	-0.1144775
253	0x3e283bcb	0.16429059
254	0xbde0a196	-0.1096832
255	0xbcd2f2d9	-0.025750564

convs.3.bias f4 [32]
0	0x00000000	0.0
1	0x00000000	0.0
2	0x00000000	0.0
3	0x00000000	0.0
4	0x00000000	0.0
5	0x00000000	0.0
6	0x00000000	0.0
7	0x00000000	0.0
8	0x00000000	0.0
9	0x00000000	0.0
10	0x00000000	0.0
11	0x00000000	0.0
12	0x00000000	0.0
13	0x00000000	0.0
14	0x00000000	0.0
15	0x00000000	0.0
16	0x00000000	0.0
17	0x00000000	0.0
18	0x00000000	0.0
19	0x00000000	0.0
20	0x00000000	0.0
21	0x00000000	0.0
22	0x00000000	0.0
23	0x00000000	0.0
24	0x00000000	0.0
25	0x00000000	0.0
26	0x00000000	0.0
27	0x00000000	0.0
28	0x00000000	0.0
29	0x00000000	0.0
30	0x00000000	0.0
31	0x00000000	0.0
